simple_cnn_model.pth (torch, 543926 bytes, 10 tensors)

conv1.weight f4 [6, 3, 3, 3]
00000000: 4cc5 6fbe ec6a 533e f961 e8bc 0027 1e3e
00000010: 2f9e af3e b7db ccbe 7502 c6bd da81 9e3e
00000020: 7c6b d5be a1c7 a03d d8c6 063e 65b9 53be
00000030: 9a0e 93bd d73c 973e 6012 2bbe 624b 083d
00000040: 395f 353e ec07 2fbe 4a28 42bd 93d9 ae3e
00000050: 3f93 5dbe 3783 793e dd26 c53d f8a8 40be
00000060: 5c4e 223e 60ef a03d c54c afbe b46c 14be
00000070: 0067 523e 61f0 ab3c 2d5f 1b3e be95 6abd
00000080: a42e 5b3d 527c 1f3e a681 313c ba9f 03be
00000090: 2e68 a63c 158e 3fbd 1391 3c3d b104 cdbd
000000a0: f818 323e 6d6e 8fbd 7672 8d3d 329a 6ebe
000000b0: f0f0 57be 295b e83d 4730 cf3d 2b18 293e
000000c0: defe 773d 222c b73e 44a3 4b3e cf1a c1bd
000000d0: 1b07 2d3d 0976 c9bc 4a31 3cbe b6d2 d0be
000000e0: e4b5 41be e1f9 0cbd 0ec4 1a3d 4cbd cdbd
000000f0: 9994 253e cc05 e23e 1873 c13c d39e 99be
00000100: ba2b efbe c4f4 a13d 9215 8e3e 560f 823e
00000110: 5a88 9a3d 618f 2c3e a921 d1bc d386 053e
00000120: 647d 48be c2d1 b5be 20cf f2bd 07ab 9a3e
00000130: a7ab 903e b767 783d 12b5 cdbd 61b4 8b3e
00000140: 25c3 42be 2236 32be 354d e9bd a488 93be
00000150: 067f 96be cef3 c7be f602 943d 28f8 9e3d
00000160: cefe 863e 33c4 de3e fc85 253d acd1 eebd
00000170: 74ca 0cbe b4a1 14be b5ae 2ebe b0b9 323c
00000180: ccf3 8abe 310f 36bd ba92 483e 32fd 923c
00000190: 9573 19be f6fe 123e ee5a 393e b1de e13d
000001a0: 44fd 863e bfc0 34bd e8aa 60bc 7acf 473e
000001b0: ba6c e83d 0e42 bd3e 3e97 a53e f32d 813e
000001c0: cf93 263e 806d 9b3d ff05 423e dce3 84bd
000001d0: a06c ebbe e18b f3bd 3527 94bd 9beb 913e
000001e0: e049 15be 1dab 54be b4a3 b9be d996 2dbd
000001f0: 2d40 c6be d782 c8be 79fa 8dbd 0cd5 1dbe
00000200: bfc9 423e 98f7 563e 5d86 62be da16 5bbe
00000210: 79c8 d23e a5b3 eabc 014c 60be a1f1 c43d
00000220: f7f8 9a3c a2f2 4dbd 6c05 71be 0eff 9cbe
00000230: 6c8c cebd 1dc8 8bbd 3fb3 a6be 6e48 92be
00000240: 04b1 7cbd b84c f73d 884c 103e faf7 e33d
00000250: 9b90 033e 2ee5 c43b cfbd 68be 3e83 aebd
00000260: 122a e5bc 3ace 4d3e 01ef 373d 1d56 4f3b
00000270: bcf2 bebb 76ea d13e c007 c13d 2fc8 6bbd
00000280: e4da 7d3e d93e 973e
-0.23415107 0.20646256 -0.02836703 0.15444565 0.34300372 -0.4001138 -0.096684374 0.30958444
-0.41683567 0.07850576 0.1316179 -0.20676191 -0.071805194 0.29538605 -0.16706228 0.033275016
0.17712106 -0.17092866 -0.047401704 0.3415037 -0.21638201 0.2436646 0.09626553 -0.18814456
0.15850204 0.07858157 -0.34238258 -0.14494592 0.20547104 0.020988645 0.15173025 -0.05727171
0.053511277 0.15574768 0.010834133 -0.128539 0.020313349 -0.04676636 0.04603679 -0.100106604
0.17392337 -0.07003484 0.06906597 -0.23301008 -0.21088004 0.113455124 0.1011663 0.16513126
0.060545795 0.35775858 0.198865 -0.094289415 0.042243104 -0.024592416 -0.18378177 -0.4078576
-0.18917042 -0.03441799 0.03778463 -0.10045871 0.16169967 0.44145048 0.023614451 -0.30003986
-0.46713048 0.079080135 0.27750832 0.25402325 0.07545538 0.1685157 -0.025528746 0.13039713
-0.19579083 -0.35511595 -0.11855912 0.30208609 0.2825596 0.060645785 -0.10044302 0.27286056
-0.19019754 -0.17403463 -0.11391679 -0.28815186 -0.29393786 -0.39053196 0.07227127 0.07762176
0.26366276 0.43509063 0.04041098 -0.116610855 -0.13749105 -0.1451481 -0.17058833 0.010908529
-0.27139127 -0.04444808 0.19587222 0.017942999 -0.14985497 0.14355072 0.18101093 0.11028803
0.263651 -0.04412913 -0.013712622 0.1951274 0.11348863 0.36964458 0.3234195 0.2523037
0.16267322 0.07589245 0.189476 -0.06488773 -0.45981312 -0.11891914 -0.07234041 0.28500065
-0.14578962 -0.207684 -0.36257708 -0.042380188 -0.38720837 -0.39162323 -0.069325395 -0.15413302
0.19022273 0.20992887 -0.22121568 -0.21395436 0.41168573 -0.028650114 -0.21903993 0.096163996
0.018917544 -0.05028022 -0.23537225 -0.3066334 -0.10085377 -0.06825278 -0.3255863 -0.28570884
-0.061692253 0.1207518 0.14091694 0.11131282 0.12848131 0.0060087657 -0.22728656 -0.08521126
-0.027974162 0.200982 0.044905666 0.003163702 -0.005827276 0.40999192 0.09425306 -0.057563957
0.24790531 0.29540136

conv1.bias f4 [6]
00000000: 9c9d 633d 15e7 bd3d 324e b83b 8fc1 d5bd
00000010: 436d dabd 35f0 f23d
0.05557023 0.09272591 0.005624556 -0.10437309 -0.10665371 0.11862222

conv2.weight f4 [16, 6, 3, 3]
00000000: a594 3fbd 850d 11be 16b6 5f3d 9147 583e
00000010: f013 113e 0c0b dc3e ced0 913e 6492 ddbe
00000020: 0ab5 ed3e f5bd 4bbe 4dc7 5f3d 9671 b03d
00000030: e394 01be 9847 1cbe b251 dabd 4f89 e3bd
00000040: 9830 b9be 34d9 07be 1116 793d 0cda 24be
00000050: 2e54 663d bace 2ebd 2a94 adbd f6ce c43d
00000060: cdb9 03bd 804c 3dbd 9ab0 55be e795 e23b
00000070: 1ad8 153d c575 e0bd 661c 93bd 5c85 193e
00000080: 291a d0bc 55d9 d1bc 557a e73b fad4 b8bd
00000090: 71b0 0b3e 84eb 873d d9d4 a6bd 271f 88bd
000000a0: da01 87bd 0172 e93d 3866 26be 4491 f23a
000000b0: 4154 d4bb f27a 133e 4291 a4bd 58e6 b1bd
000000c0: b9ea 393e 462c c53d f19f 16be 2298 fe3d
000000d0: 0a9f 31be 6b70 57bd aa1b 5fbd a01a c0bc
000000e0: 77fa ccbd fb16 04bd 38ff 12be 4ad2 433d
000000f0: 5e14 0e3d 49eb 5e3d 1e78 43bd 998f c63d
00000100: ab8d 0bbe 7e92 813d 1977 a0bd a9bc 63bc
00000110: 518c 83bd 8c34 89bd f3dc dcbd 8816 cfbd
00000120: 50db 1abc 478d d2bd cf3a febd 8ffb 823d
00000130: 51af a8bd c61d dfbb 5b66 8abb 3bde 12be
00000140: 7df1 2a3d 525c 06bd 9893 b5bc c8dd d6bd
00000150: 87df b5bd 72c5 a5bc 2201 64bd a986 e83d
00000160: 9615 ffbb a25b 813d 2f00 4bbc 5c4a 6cbc
00000170: 89dc 2dbc 3be2 17bc 4525 193b 24bf 1ebe
00000180: 30a0 cebd 47ca afbc ceb4 19bd 456b 8c3d
00000190: 5f73 81bc 7158 0fbd 0dff 9ebd cd55 ee3d
000001a0: ddb8 7ebd a593 efbd 1a0b 6f3c b7b2 10be
000001b0: d7b2 3fbc 483e 52be 9397 b4be 21a2 8fbd
000001c0: 0085 f2bd aaa9 0bbe c47f 2cbe 1611 f53c
000001d0: 1650 143d c1a2 243d 1895 c8bd 784b e93c
000001e0: f5be 253e 99ae 043d bfb8 b4be 11e2 d5bc
000001f0: 8558 473d 3bda 52be 3305 613e facf 813d
00000200: 7943 afbe 1bbd ef3d 2bb0 493c 0266 c83c
00000210: 99f9 d13d 7e41 cd3c 7907 1a3e ee51 5abe
00000220: 16cc a7bd 7945 46bd 7f0e 3dbe 272e 88be
00000230: 5741 04be 825d 52be a449 c13d b118 3c3e
00000240: 73b5 2c3d d18d 973d 33ae 733d b0a5 89be
00000250: 4e5b 5cbe a591 503e aaba 11be aa5e 42be
00000260: 70b8 33bd 84e7 e1bd 10cb 8fbb cf99 863c
00000270: d7ba febc 42f7 7b3e 815d 5f3d 8831 033e
00000280: 8e79 c93e 41fb 653e b0c2 2b3e c5ff 413e
00000290: 3c48 703e 5119 b7be 1563 73be aa70 cfbd
000002a0: 1f69 e23c 8b9e 70bd 40fa 41be bb48 2e3e
000002b0: 3383 073e f725 a5bd 9c54 0d3d 3b81 78bd
000002c0: 01fd 283e 3206 24be a03c aebd 3aa3 1ebe
000002d0: 4c0d 72be 774f 4b3e 5f43 883e 9757 493e
000002e0: 7864 c53d e0e5 c53d 00eb 143e 3ee5 003c
000002f0: 672d 71bc 115c 94be 62ed 28bc 03c0 203d
00000300: ec80 b83d ae75 20be 4cfd 2bbd ea60 c6bd
00000310: c155 e43c 2826 393d 0e41 343e 068c 91be
00000320: dece 68be c7b1 95be f8f0 543e dc72 9a3d
00000330: bb82 e93d 2bbd 433e edc4 2b3e a6ec 063e
00000340: d94d 833e e484 3f3d 976d 88bb 0c68 ebbd
00000350: eedc cc3d 91f6 64be c348 dbba e275 80bd
00000360: a93d 48bc 78ed 3abd 941f 0bbe bdb1 29be
00000370: 60df 4cbe 3a2c 643c 2cab 083e 15bd 843e
00000380: 0fdc ff3d efdb e6bd b310 c33b a3bc 45be
00000390: df6b 0bbe f327 0b3e f49c a33d c888 2f3d
000003a0: d494 163e 60c4 4c3d dc9d 12be 0cfe bf3c
000003b0: c0df 35bd d872 2bbd 7e82 2bbe 317a d6bc
000003c0: 95e0 be3e e148 2f3b e16d efbe e847 e6bc
000003d0: ef15 dfbe d14a acbd 8d0b d3bc ae61 59be
000003e0: 3253 29bf 732f be3d e4bb 8abe 3cc3 d8be
000003f0: 0fab 68be aff9 21be d7cb fcbd c01c 2e3e
-0.046772618 -0.14165314 0.05461701 0.2112105 0.14167762 0.42977178 0.28479618 -0.4327575
0.46427184 -0.19896682 0.054633427 0.08615415 -0.12654452 -0.15261686 -0.106601134 -0.11110174
-0.36169887 -0.1326645 0.06081206 -0.16098803 0.056232624 -0.04267762 -0.08475526 0.09609787
-0.032159615 -0.046215534 -0.2086815 0.0069148424 0.036583044 -0.10959963 -0.07183151 0.14992279
-0.0254031 -0.025616327 0.0070641437 -0.09024997 0.13641526 0.06636718 -0.08146066 -0.06646567
-0.0659215 0.11398698 -0.16249931 0.0018506427 -0.0064797704 0.14402369 -0.08035518 -0.08686513
0.18155946 0.09627585 -0.1470945 0.12431361 -0.17345825 -0.052597445 -0.054469742 -0.023450196
-0.1000871 -0.03224848 -0.1435517 0.04780797 0.034687392 0.054423604 -0.047721975 0.09695358
-0.13628261 0.06326769 -0.07835216 -0.013899961 -0.064232476 -0.06699476 -0.1078433 -0.10111719
-0.009451702 -0.10280853 -0.124135606 0.06395637 -0.08236564 -0.006808969 -0.0042236275 -0.14342587
0.041734207 -0.032802887 -0.022165105 -0.1049152 -0.08880525 -0.02023575 -0.055665143 0.113538094
-0.0077845557 0.06316306 -0.0123901805 -0.0144220255 -0.010611662 -0.009270246 0.0023368162 -0.15502602
-0.10089147 -0.021458758 -0.037525944 0.068563975 -0.015802084 -0.034996454 -0.07763491 0.11637459
-0.062188018 -0.11698083 0.014590049 -0.14130674 -0.011700354 -0.20531571 -0.35271892 -0.070133455
-0.11841774 -0.1363894 -0.16845614 0.029915374 0.03620919 0.040194277 -0.097940624 0.02847837
0.16186126 0.03239307 -0.352972 -0.026108773 0.048668403 -0.20591061 0.2197464 0.063384965
-0.34231165 0.11705991 0.012310068 0.024462704 0.10252685 0.025055643 0.15041913 -0.21320316
-0.08193223 -0.048406098 -0.18462561 -0.2659771 -0.1291555 -0.20543483 0.09437874 0.18368794
0.04216523 0.07400096 0.0594923 -0.26884222 -0.21519205 0.20368059 -0.14231363 -0.18981424
-0.043877065 -0.11030486 -0.0043882206 0.016430764 -0.031094952 0.2460604 0.05453253 0.12811863
0.3935055 0.22459127 0.16773486 0.18945225 0.23465055 -0.35761502 -0.23768266 -0.10128911
0.027638016 -0.05874495 -0.18943119 0.17019932 0.13233642 -0.08063882 0.034504518 -0.06067012
0.16502763 -0.16017988 -0.08507657 -0.15491953 -0.23637885 0.19854532 0.266139 0.19662319
0.096383035 0.09662986 0.1454277 0.007867156 -0.014720297 -0.2897649 -0.010310503 0.039245617
0.09008965 -0.15669891 -0.04198961 -0.09686454 0.027872922 0.045202404 0.17602941 -0.28427142
-0.22735164 -0.29237196 0.20795047 0.07541439 0.11401888 0.1911513 0.1677434 0.13176212
0.2564533 0.046757594 -0.0041634548 -0.11494455 0.100030765 -0.22359683 -0.0016730059 -0.06272484
-0.012221732 -0.045636624 -0.13586265 -0.16571708 -0.20007086 0.01392656 0.13346547 0.25925508
0.12493145 -0.11272418 0.0059529184 -0.1931024 -0.13615368 0.13589458 0.07988921 0.042855054
0.14705211 0.049991965 -0.14318031 0.023436569 -0.044402838 -0.04185757 -0.16748998 -0.026181312
0.37280717 0.002674632 -0.46763518 -0.02811046 -0.43571422 -0.084127076 -0.025762344 -0.21228668
-0.6614257 0.09286394 -0.27096474 -0.42336452 -0.22721504 -0.15817903 -0.12343567 0.17003155

conv2.bias f4 [16]
00000000: 52f0 883d f84a f8bd 22ee 503e d3ff 58be
00000010: 278d 963e ffa8 10be cce8 0c3e ba31 3f3d
00000020: eec7 f6bd 225f 73be 8e1c 64bd beef a0bd
00000030: ebf1 51be 6e23 573d 7b72 5a3e 95c2 663e
0.066864625 -0.12123674 0.2040334 -0.21191339 0.29404566 -0.14126967 0.1376068 0.046678282
-0.12049852 -0.23766759 -0.055691294 -0.07858227 -0.2050244 0.052524023 0.21332733 0.22535165

fc1.weight f4 [120, 1024]
00000000: 55c8 18be 1d44 05be 6ac3 353e fd8a a13b
00000010: 39e7 21be f874 ad39 4231 a83d eaad a73c
00000020: cfd1 173d 363d 04bc 882e 833c 4f7f 373e
00000030: 3400 d13d 2876 4dbd 2768 8f3d e20c 893b
00000040: 1d36 d63c 1fb8 983d 6c70 0c3e 22fe a63e
00000050: 14c2 c43e 03b1 f03d 34ba 9b3d 8b7e 9dbd
00000060: 327a 7b3c cd5d d7bc 7fce 833d 4ae3 af3e
00000070: c618 073e 8a8f 6f3e 88b7 c53d 83ec 06be
00000080: 3b8f c3bd 7d84 9d3d e00d c9bb fa1f 093e
00000090: 3751 1f3d 7900 b83d 293a c7bc 6459 bbbc
000000a0: 7efe fe3d ebdf bb3d 6931 26be 996d 12be
000000b0: 3a29 13bd 65f6 993d bb06 db3d 9ab0 313e
000000c0: ec1b 8fbd b2fa 403c 22a9 b03d cdd8 2d3d
000000d0: b86a 423e aa44 463e a1ee 003e 8421 62bc
000000e0: 66bb a4be a0da 6abe ded7 95bd 9e3a b3be
000000f0: 06f9 9fbe 177a 14be dd33 07be eeb7 123e
00000100: 286f 2abc a054 2bbc 985c fa3b 40b7 c53c
00000110: a6b4 f93c 1c03 323c de30 043c 343b 953c
00000120: 629d ad3c c07a d33b 78c8 d33b e410 42bc
00000130: da3c 94bc c0a9 d3ba e458 9f3c fce9 6b3c
00000140: 60f7 bfba 3809 a33b 6fca 12bc 5070 4c3b
00000150: 7cdc 75bc 3e6e 83bc 6e01 ac3c 8f65 423c
00000160: ee5a a73b d0b1 77bb a8dd 30bc 2fa0 03bc
00000170: c836 e9bb 1045 403c 987c d13b f1d6 673b
00000180: 6e04 e1bb e8f1 bd3c 4082 cbbc 80ab 7b3b
00000190: 189b c1bb 3451 483c 407f ae3c 3001 16bd
000001a0: 20f5 3b3b 006d 0d3d 24df c23c 18db 72bc
000001b0: b4f3 37bc fed3 abbc 4663 b1bc bc50 01bc
000001c0: e0d7 dbbb 3446 49bc 888b 403c 8014 c73b
000001d0: c89b fd3c 0046 bb3b b00b 88bc 9a44 eb3c
000001e0: 984f a43b 803b 073a 56a3 ddbc c081 fd3b
000001f0: 40f9 7aba 58f7 c13c 6051 ea3c 626a bfbc
00000200: 3195 e33d a2e1 823d a367 b13b 6f61 c6bc
00000210: 6ea1 dc3c acca e63d 76b5 183e d1b9 6b3d
00000220: 05da 88bd d10a 03be 1382 153d 9c8b 173d
00000230: 5055 183e abc4 dcbc e03c be3d dfd1 98bd
00000240: c1b0 8abb 4b11 29bd 0813 8d3c 0b12 333e
00000250: 811f 563d 0d76 303d 7ff2 5dbd b4e4 6ebe
00000260: 541b 9abd 4413 e83c 67ad 453e cd0b 4d3e
00000270: 57e1 083e 2a14 8cbb aa0f 3ebd 1e88 73be
00000280: 6c30 cdbd 5385 79be 1dfa 8dbc 2bfa 743e
00000290: d85f 493e b800 993c c6bf 5fbe 4413 49bc
000002a0: b169 eb3c 6892 b2be 6aee 15be c9ff c3bd
000002b0: 7a41 bd3c 8217 85bc 1176 913b 1fa3 83bd
000002c0: 9263 ed3d 6d75 04be f207 9ebd 6184 e0bc
000002d0: 6191 09bc 46a3 a7bd 9107 10bd b5b6 29be
000002e0: a30a 4f3e 1510 2dbd 25e1 42bd bcde 05be
000002f0: ac09 7bbd 0393 87be bbad 35bc 49aa f4bd
00000300: 3525 c63d f67c 2ebb a0f7 5fbb 3fc0 753d
00000310: 59d9 583e 7e30 0c3d 92e5 9e3a f41d cf3d
00000320: c18b 9f3d a618 383e 9054 41bd 16cd 1cbe
00000330: 4b56 75be a0ee 41bc 4bc8 21be 0ff9 8cbd
00000340: 41bf 14bc 4e2e 47be 4d19 90be 8f25 abbe
00000350: f334 87be 31f9 80be a96f b1be b4ee abbd
00000360: 2148 d83d 5d5d 763d be6f fdbd fa28 84be
00000370: fd6a 90be 3e57 2cbe d5cf 37bd 4383 a8bd
00000380: f705 953e 38cf f73c 70bf aabd b0e2 72bd
00000390: e96b d7bd 148d abbd 7ed3 c5bd 1146 263d
000003a0: d844 903e 002e 2b3e 1ba3 383e 0e31 d83d
000003b0: 5740 8a3d 14a0 f03d 0dcc 15bc b5bf f23c
000003c0: b870 6f3e b10f 333d 87f7 72bd da31 2c3e
000003d0: 8a46 623d 7c72 8d3d 84d5 86bb fdaf 1a3e
000003e0: 548b 423d ba10 2bbc 5450 cd3d fcb5 e73d
000003f0: f485 b8bb e47c 0d3d f431 0d3e 4cc8 073e
-0.1492017 -0.13014264 0.17750326 0.004929899 -0.1581086 0.0003308428 0.0821252 0.02046867
0.037065323 -0.008071234 0.016013399 0.17919658 0.10205117 -0.05016151 0.07002287 0.004182444
0.02614885 0.07456993 0.1371476 0.32615763 0.3842932 0.11752512 0.07603875 -0.07690152
0.015348958 -0.026289845 0.064358704 0.34353095 0.13193044 0.233946 0.096541464 -0.1317616
-0.095488034 0.07691286 -0.006135687 0.13391104 0.038895812 0.08984465 -0.024319725 -0.022869773
0.12450884 0.09173568 -0.16229786 -0.1429962 -0.03592799 0.07517699 0.10694643 0.17352524
-0.069877476 0.01177852 0.086260095 0.042443085 0.18986022 0.19362131 0.1259103 -0.013801936
-0.32174224 -0.22934961 -0.07316564 -0.3500566 -0.31244677 -0.14499699 -0.13203378 0.14327976
-0.010402478 -0.010457188 0.0076404326 0.024135232 0.030481648 0.010864999 0.0080682915 0.018216707
0.02119321 0.006453842 0.0064631067 -0.011844847 -0.018095423 -0.0016148612 0.019451566 0.014399048
-0.0014645867 0.004975464 -0.008959397 0.0031194873 -0.015006181 -0.016043779 0.020996775 0.011865034
0.005107275 -0.0037795193 -0.0107950345 -0.008033796 -0.007117126 0.011735216 0.0063930266 0.0035375918
-0.006866983 0.023186639 -0.024842381 0.0038401783 -0.005908381 0.012226392 0.021300912 -0.036622226
0.0028680041 0.03452778 0.023788042 -0.014822744 -0.011227537 -0.02097511 -0.021653783 -0.007892784
-0.006709084 -0.012284804 0.011752017 0.006075442 0.030958071 0.0057151318 -0.016607136 0.028719235
0.005014371 0.00051587075 -0.027055424 0.0077364147 -0.00095738843 0.023677513 0.028603256 -0.023366157
0.111124404 0.06390692 0.005413966 -0.024216382 0.026932444 0.11269125 0.14912972 0.057550255
-0.06682209 -0.12797095 0.036501 0.036998376 0.14876294 -0.026949247 0.09288955 -0.07461905
-0.0042324965 -0.041276257 0.017220989 0.17487352 0.05227614 0.043081332 -0.05418634 -0.23329431
-0.07524744 0.028329499 0.19304429 0.20024033 0.1336721 -0.0042748647 -0.046401657 -0.23782393
-0.10019001 -0.24367265 -0.017331177 0.23923557 0.19665468 0.0186771 -0.218505 -0.01227266
0.028736921 -0.34877324 -0.14641729 -0.095702715 0.02310251 -0.016246561 0.0044391234 -0.06427597
0.11591257 -0.1293542 -0.07716359 -0.027406873 -0.008396477 -0.08185439 -0.035163466 -0.16573603
0.20218901 -0.042251665 -0.047577996 -0.13073248 -0.06128852 -0.2647935 -0.011088784 -0.11946542
0.096750654 -0.0026624775 -0.0034174696 0.059997793 0.21176662 0.034225933 0.0012122861 0.10113135
0.07790328 0.17978153 -0.047199786 -0.15312609 -0.239587 -0.011836678 -0.15799062 -0.06883442
-0.009078802 -0.19451258 -0.28144303 -0.33427092 -0.26407585 -0.25190118 -0.34655502 -0.083951384
0.105606325 0.060147632 -0.12374829 -0.25812513 -0.28206626 -0.16830155 -0.04487594 -0.08228161
0.29106113 0.030250177 -0.08337295 -0.059298217 -0.10518629 -0.08376518 -0.096594796 0.040594164
0.28177524 0.16716766 0.1803097 0.105562314 0.06750553 0.117492825 -0.009142888 0.029632429
0.23382843 0.043716136 -0.05931809 0.16815892 0.055243053 0.06906602 -0.0041148085 0.15106197
0.047496155 -0.010441 0.10025087 0.11314008 -0.005631203 0.034542933 0.13788587 0.13260001

fc1.bias f4 [120]
00000000: 26a8 96bd 1fbe af3c 0811 133e dcd5 99bc
00000010: fa12 e0bc 812f 0bbd c4e4 ebbc 4323 06be
00000020: ad93 123e 1387 94bb a891 7e3e afc2 11bd
00000030: 445a 1d3e 3c62 f33d c97e 893e 958d 2abd
00000040: 7122 84bc 55a8 ca3b 7f83 573e 8357 1cbc
00000050: 4acb 72bd de7d a8bb 8061 bcbc 8193 aebd
00000060: 11e4 3bbd fe33 f83d 0594 a83d 236c 5bbd
00000070: 2052 c4bc 49cf 12be 90f7 c3bc 7d03 46bd
00000080: d5e0 1a3e 64c2 9bbc c5b0 973e 2772 ad3d
00000090: 406a 2bbd 9f9c 8cbd 25f5 3a3a 65bd 913e
000000a0: d171 de3d fbbf ff3d f993 67be e8e6 27bc
000000b0: 5652 20bd 5a7f 513d c6ed bcba deba 7fbe
000000c0: 1f1f b83c 9e87 263b 46d8 19bd 5034 013e
000000d0: c4b6 d93c d65b 14bd 593b 233e 16d2 debd
000000e0: 513d c33b d870 70bc b460 acbc 7e7a b83c
000000f0: cbbe 81bd d6d3 f13d 41ef b7bc 36cb 9d3e
00000100: d4e5 febb d777 a33e 10a5 5f3e 7ab4 24bd
00000110: 51c5 d9bd 3eea f3bc 943f 13bd 8a8c 86be
00000120: deb3 52be f414 383e f037 57bc 097a 4fbc
00000130: 0a61 0bbd a4b7 41bd 285f 41be a677 e53c
00000140: 9171 403e bf17 09bd d578 4cbc b9ed 433e
00000150: 5549 6cba dfda f8bb a49e 93bb 6998 58bd
00000160: 122c bf3a 761a 80bc b731 fe39 dadb 3dbd
00000170: 0417 b6bb b044 67bd 88ae 88bc 016b 1c3e
00000180: e041 cabc ea24 c8bd 8f49 59bd e8bb 6bbc
00000190: eb5e 6d3e f16f 9e3d 4d2a debc e870 82bc
000001a0: 6501 fabd e32c 88bc 8e00 563e 4490 803e
000001b0: 6090 86bd a512 0cbd 212c 87bd 0d39 13bd
000001c0: 5bcb 013d 9c29 963e d843 1cbd 1ef8 633e
000001d0: 8ff8 aebd a1f3 21bd afef d0bc 7617 8c3c
-0.073562905 0.021452961 0.14361966 -0.018778734 -0.027352799 -0.03398085 -0.028795607 -0.13099389
0.14314146 -0.0045327037 0.24860251 -0.035586055 0.15366465 0.11883971 0.26854542 -0.04163893
-0.016129704 0.0061846175 0.21046256 -0.009542349 -0.059275903 -0.0051419577 -0.02299571 -0.08524228
-0.045871798 0.12119292 0.082313575 -0.053569924 -0.023964942 -0.14336886 -0.023921758 -0.04834317
0.15124829 -0.019013591 0.29627052 0.084690385 -0.041849375 -0.068658106 0.00071318663 0.2846481
0.108615525 0.12487789 -0.22615041 -0.010247923 -0.03914102 0.051146843 -0.0014414124 -0.24973628
0.022475777 0.0025410424 -0.03755977 0.12617612 0.026576407 -0.036220394 0.15940608 -0.108799145
0.005958237 -0.014675342 -0.021042205 0.022519346 -0.06335219 0.118079826 -0.022452952 0.308191
-0.0077788625 0.31927368 0.2184031 -0.04021118 -0.10633338 -0.029774781 -0.035949305 -0.26279098
-0.20576426 0.17976743 -0.013135895 -0.012663373 -0.03402809 -0.047294274 -0.18883955 0.028011154
0.18793322 -0.03346991 -0.0124799805 0.19133653 -0.0009013613 -0.007594451 -0.0045049954 -0.052879725
0.0014585278 -0.015637618 0.00048483696 -0.046352245 -0.005556943 -0.05646199 -0.016684785 0.15275194
-0.024689615 -0.09772666 -0.053048667 -0.014388062 0.2318074 0.07736195 -0.02711978 -0.015922979
-0.12207297 -0.016622966 0.20898649 0.25110066 -0.06570506 -0.03419747 -0.06600214 -0.03594308
0.031688076 0.2932862 -0.03815064 0.22262618 -0.085435025 -0.039538983 -0.025504915 0.01710103

fc2.weight f4 [84, 120]
00000000: a1aa 14be dca4 8d3d f1c1 24be 8f34 0dbd
00000010: 5c79 a3bd 9d98 ea3c 528c 8abc 54ca ad3d
00000020: c6ef 8f3d e0a8 943d 8961 13be 44e7 153b
00000030: 8f99 06be bb3c b0bd b82c a1bc 07e0 603c
00000040: 9747 b03a da89 2c3d 4717 383d da1f 9abc
00000050: ab6f 003e 6ea7 13bb 5e3e b6bd 62e3 5e3c
00000060: 6ead 8c3d 9dd9 0d3e c293 2bbe 9df6 543d
00000070: 174b 5dbe 51e0 07be 0b9b c7bc 027d 57bd
00000080: 82a2 a63c ba51 623c b34e 233d 54be e6ba
00000090: 6eb9 4b3d 817d 9d3d 0b22 b33d 17a0 91be
000000a0: 4534 26bc a0e8 8bbd b3be 1dbe accc 16bc
000000b0: 8829 9abe c4ae a9be aeea 8b3d 51ab fdbd
000000c0: ddc7 87bc ae6e a6bd 5ea3 2f3d ac6c 0cbc
000000d0: f6dc de3c bacc 85bd 9afd 68be fb15 fcbd
000000e0: 3c74 663d 5918 ccba ea6d 4e3d 0bc7 e93c
000000f0: c2d6 b13c e2bc d93d e4dc 943c 0c72 5cbe
00000100: 2512 d73c 01b9 573d 43b2 5dbe 6a92 34bd
00000110: 9c93 b33d 876b b13b f5c6 eb3c 61e2 70bd
00000120: 75f4 47bc ee0e f13c 6996 d8bb 8b6a 703d
00000130: 631e 1b3c a3ad 17bd dc48 4bbe 7ddd 0d3c
00000140: 1101 783e 5e98 b33d f17b c1bc cee2 69bb
00000150: 88c2 223c 3a3b 8ebc 969c a73d 2771 afbd
00000160: 51d2 66bb 0e19 01bd ef28 70bd aa4f 6a3d
00000170: 930d a8bd 212f d23d c9d3 da3c e9b6 6bbe
00000180: d07f 86bd 89d6 f33c 894a 453d 9a64 233d
00000190: 01ab be3d 1798 183b b9fe 9e3c bd4f 53bd
000001a0: 13e5 863c 28b9 58bd 729c d23d 4fa4 ab3b
000001b0: 6062 80bd a5b2 adbd ef85 15bd 80a5 d23c
000001c0: 58cb 8dbe 6aec 27bc e85f a1bc ef83 9e3c
000001d0: 78c4 823e 8382 67bd 1713 8a3d 19a6 a6bc
000001e0: 01bf 18be 5b84 04bd 8ba1 5fbe b0df 0dbc
000001f0: 6797 36bd f19d 123c 4953 873d e79e 6fbe
00000200: 578b 35be e285 7cbd da27 6bbd c983 883d
00000210: 0a9b f2bd 19df 4c3e bd1b b8be cda0 2a3e
00000220: 5d7c 65bd 2ac7 07bd 6fca e93d 9333 003d
00000230: d807 bd3d 1d50 45bd 78c8 e13c aa7b 18bc
00000240: 2ee3 3a3d 3011 59be 22cb 403e f521 dabb
00000250: 3746 f13d 0a8f c1be 5e21 4ebd 5cf4 c13d
00000260: a5d7 1fbc dfb6 9b3d 4db3 533e 7260 9dbc
00000270: 218c 92bd f889 47bc 9e73 05bd 52b1 26be
00000280: 9a81 3abe c598 153e 5697 89bd d3d5 493d
00000290: 672e babd aa30 6cbd 56b9 a9bc 6647 42be
000002a0: 5319 933d 749c 94bd 55f7 7bbd 2dd5 0dbe
000002b0: 1832 84bd 5fd7 0fbd 59b8 27be a05b e03d
000002c0: 65a4 8f3d 3ade 70bd 55ce 0c3b c027 08bd
000002d0: b7a8 b2bd 9ea2 efbd bde5 0b3d 64bc aa3d
000002e0: e6af 7bbc fe7e 57be b9fa 993d 7a89 833c
000002f0: aace 793d 6397 2bba 29df 863d d771 e13d
00000300: 1ba8 c9bd 1f1b e6bc 8607 78bd a3fc 72bd
00000310: f399 06bd 52e3 963c 6fd2 d6bd 3ec4 a23d
00000320: 8a29 36be cf0f 6c3d 6871 8cbd 5228 4fbe
00000330: 774a bd3b ad93 933d 91d4 52bd f704 9dbd
00000340: ccdb 8bbc 7845 203e 614f 483d 9539 9ebd
00000350: 2cec 5f3b c342 453c c594 92bd bfbc 273e
00000360: c655 b53c 5084 893c 6001 f9bb 3637 1dbc
00000370: 123a 0bbd 4382 febd c06c 2abc 0fb1 14bd
00000380: 3543 123e ea53 bfbd f609 1f3e 46a0 0b3e
00000390: 3fb3 4fbc 4b89 de3a 35c0 14be 111b 1d3b
000003a0: cd8d a83d 2764 c03d 3ca7 ce39 dae6 9a3d
000003b0: 34dc 9c3d e411 a2bc 9f35 09be abd5 0b3d
000003c0: dee7 7a3d 3f2e 0abc e4c1 df3c 5eb2 c5bc
000003d0: a50d 7fbd deb7 6f3c d8be 7cbd ec18 15be
000003e0: bceb e03d c549 233d a992 843d 8590 12bd
000003f0: 33e8 87bd 6a40 3c3e 8bb4 41be 8e93 fc3d
-0.14518215 0.0691621 -0.16089608 -0.034473952 -0.07982132 0.028637225 -0.016912613 0.08485857
0.07028155 0.07258773 -0.14392675 0.002287344 -0.13144515 -0.086053334 -0.019674644 0.013725287
0.001344907 0.042123653 0.044944074 -0.018814016 0.12542598 -0.0022530216 -0.08898614 0.013604017
0.068690166 0.13852544 -0.16755584 0.051993 -0.21610676 -0.13269164 -0.024365922 -0.05260945
0.020341162 0.01381343 0.039869975 -0.001760433 0.049737386 0.076899536 0.087467276 -0.2844245
-0.010144298 -0.06831479 -0.15404777 -0.009204071 -0.3010981 -0.33141148 0.06831871 -0.12386192
-0.016574794 -0.08126579 0.04288041 -0.008570831 0.027204972 -0.06533189 -0.22752991 -0.1230888
0.056263193 -0.0015571221 0.05039779 0.028537294 0.02170885 0.1063173 0.018171735 -0.2152788
0.02625377 0.052666668 -0.21650033 -0.044084944 0.08768389 0.0054144296 0.028781394 -0.05880964
-0.012204279 0.029426064 -0.006609727 0.058695357 0.009467694 -0.037030827 -0.19852012 0.008658764
0.24219157 0.08769296 -0.02361867 -0.0035688165 0.009934075 -0.017362226 0.08184163 -0.08566504
-0.0035220573 -0.031518035 -0.058632787 0.05720488 -0.08205714 0.102628954 0.026712315 -0.23018993
-0.06567347 0.029765384 0.048166785 0.039890863 0.0930996 0.0023284012 0.01940857 -0.051589716
0.016466653 -0.052910954 0.10283746 0.005238093 -0.062687635 -0.08481339 -0.036504682 0.025713682
-0.276942 -0.010249237 -0.019699052 0.01935002 0.2554052 -0.05652095 0.06741922 -0.020342873
-0.14916612 -0.032352787 -0.21838968 -0.008659288 -0.044577982 0.008948789 0.06607682 -0.2340046
-0.17728935 -0.061651118 -0.057411052 0.06665761 -0.118459776 0.2000698 -0.35958663 0.16662903
-0.056026805 -0.033148922 0.11415564 0.031299185 0.09230012 -0.048172105 0.027561411 -0.009306828
0.04562681 -0.21197963 0.18827489 -0.00665688 0.117809705 -0.37804443 -0.05032479 0.09470436
-0.0097560035 0.07603239 0.20673867 -0.019211028 -0.07155634 -0.01217889 -0.032580964 -0.1627858
-0.18213502 0.14609058 -0.06718318 0.049276184 -0.09090882 -0.057663597 -0.020718258 -0.18972549
0.071825646 -0.072564036 -0.06151517 -0.13850851 -0.06454867 -0.035117503 -0.16378917 0.10954976
0.07013778 -0.05880568 0.0021485288 -0.033241034 -0.08723586 -0.11700939 0.034154642 0.08336714
-0.015361762 -0.21044537 0.07518525 0.016056765 0.060988106 -0.00065456907 0.06585533 0.11008041
-0.09846517 -0.028089104 -0.06055405 -0.059322964 -0.03286166 0.018418942 -0.10489356 0.079475865
-0.17789283 0.057632264 -0.06857568 -0.20230225 0.005776699 0.07205901 -0.05147225 -0.076669626
-0.01707258 0.156515 0.048903827 -0.07725827 0.003416787 0.012039843 -0.07157282 0.16380595
0.022135627 0.016786724 -0.007599041 -0.009595683 -0.033990927 -0.12427189 -0.010401905 -0.03630167
0.1428345 -0.09342177 0.15531144 0.13635358 -0.012677013 0.0016978172 -0.14526446 0.0023972432
0.08230171 0.093941025 0.0003941598 0.07563563 0.07659188 -0.019783922 -0.13399361 0.034139317
0.061256282 -0.0084338775 0.027314134 -0.024132904 -0.06226887 0.01463124 -0.06170544 -0.14560288
0.10982463 0.039865274 0.06473286 -0.035782356 -0.06636085 0.18383947 -0.18916528 0.12332831

fc2.bias f4 [84]
00000000: 4a1b 91bd c01d cd3e 750f 563e ab0d 9e3d
00000010: b0ad 2b3e c902 c03e d093 9d3e 705a 4fbe
00000020: de02 323e 65fd dd3e 1617 773c 82a0 bebb
00000030: 58fd 94bc 9a5a b2bb 0579 243d f752 633d
00000040: a499 0dbe eb3e b73d cc5c f1bd d622 11bd
00000050: 6fa0 88bc 9fa7 833e 9425 243e 3d56 5cbb
00000060: 934d 47be 4fda 833e 4741 f33d 23ac e8bc
00000070: b343 2abe d5c9 cbbc 634f efbb 8af8 053e
00000080: 0b88 453e 41b5 813e 6e60 783e a044 043d
00000090: 9bac a43e 7f7a 013d 8deb 723e 9c6d c53e
000000a0: 5ef1 bc3d 2580 d4bd 00bf 383e 42e4 313c
000000b0: 0b46 113e 62c2 163e 8957 adbd 1dc0 d33c
000000c0: 1b2e 18be 9908 963d d6dd 433c f4e9 af3d
000000d0: 0543 ac3e 56c8 193e e51a 393d e2bb 1c3d
000000e0: 5fc4 26bd 066b 7ebd dca5 a73b 26ba 0e3d
000000f0: 2fd2 823e a13d 26be 3ffc 43bd d43c 90bd
00000100: f0f0 84bc cab6 513e 2043 713e 72fc f83d
00000110: a845 473e 6c64 95bb 3151 9e3e 1737 963e
00000120: 3f0d d83d 5c9d 4d3d 40ce 1abd b38b df3d
00000130: 8745 f6bc cd61 fd3d f306 8f3e 78ab 143e
00000140: 11b1 e03e f2ad a3bd 3871 ed3d 44ca 2c3e
-0.07085283 0.4006176 0.20904334 0.07717451 0.16765475 0.37502125 0.30776834 -0.20249343
0.17383906 0.43357387 0.015081188 -0.005817474 -0.01818721 -0.0054429295 0.040154476 0.055499043
-0.1382814 0.089475475 -0.11785278 -0.035433613 -0.016678063 0.25713822 0.1602996 -0.0033620738
-0.19463186 0.25752494 0.11877685 -0.028402394 -0.16627388 -0.024876514 -0.007303165 0.13083091
0.19290178 0.25333598 0.24255535 0.03229201 0.32162938 0.031610962 0.23722668 0.38560188
0.09225725 -0.10376004 0.1804161 0.010857644 0.14186876 0.14722589 -0.08463962 0.025848443
-0.14861338 0.073258586 0.011954745 0.08589545 0.33644882 0.15017828 0.045191664 0.038265117
-0.040714618 -0.062113784 0.0051162075 0.034845494 0.25550982 -0.16234447 -0.047847982 -0.07042852
-0.01622817 0.20479885 0.23560762 0.12157525 0.19460166 -0.0045590904 0.3092132 0.29338905
0.105494015 0.050198898 -0.03779435 0.109153174 -0.03006245 0.1237217 0.2793499 0.14518535
0.4388509 -0.07992162 0.115938604 0.16874033

fc3.weight f4 [10, 84]
00000000: 8ded ebbd 1b85 d6bd 04f8 53be 7b5f 2dbe
00000010: d667 763d 39a4 c5be 3aac 123e 00ac 813d
00000020: baa5 adbe b432 8cbe 3804 65be f1bf c63c
00000030: b98c 9b3e 7221 383e 290c 8c3e 84b5 93bd
00000040: a8aa c0be 1201 703e cebd 213e 4b66 dfbd
00000050: ffbb 343e c855 dd3d c3af 00be d1ce bcbd
00000060: c67f 3b3e a72c 09bd edfc fcbe 3487 17be
00000070: 7f06 9abd 7db9 e3bd d9a6 31bd d4c3 8f3e
00000080: 7745 4b3d f757 8fbe abb2 ca3c 166d 11bc
00000090: 806a a1be 8c07 1c3e 291a 57bc 31c8 a6bd
000000a0: 82f3 5f3d d09f aabe aed4 1f3e 3a7e d4bc
000000b0: f464 823d 0376 f4bd ebe9 263e 597f a33d
000000c0: 8a93 313e 341b 0e3e 997b dabd 6c38 0fbf
000000d0: e46c 50be 8eaf 67bd f13f 18bd d5cf a9be
000000e0: 0486 b6bd c351 58bd cc42 9cbe c725 a03d
000000f0: 067a 863c 2f65 c93e 1152 2abd d977 00be
00000100: 1f6b 1dbe ec99 db3d ad6f 4f3d 19ac 00be
00000110: 6814 dabb 62dc 70be 5529 873e e595 023e
00000120: e678 953b 8438 22be a1c9 513e a62b bd3d
00000130: 0db4 b63c 4266 9cbe 0f22 953c 8891 7cbd
00000140: ee4b 88ba 531f 353d e9d5 c53d 4cfb b9be
00000150: 130a 4fbd 9059 a0be a152 c83c ab45 323e
00000160: a2cf ef3c a9b3 5abe 8ee8 85be 0bb4 0e3e
00000170: 0c4c 8abe 34e0 d8be 8176 863e ce4c 5b3e
00000180: addd 97be b016 bb3d 7cc4 cf3d 656a 18be
00000190: fdb6 53be e4d1 cbbe 7082 903d c6b5 99bd
000001a0: e248 cbba 4b1f a5be d975 653c 6b6a acbd
000001b0: a523 a53d 961f adbd dfef 1bbe bc21 983e
000001c0: 19a3 4f3e 9032 6c3d 140e 633e bdf4 17be
000001d0: cea3 b1bd 8a57 84be f37e b63d db1d 953d
000001e0: cb8d 81bd fba4 cd3d e898 0fbf 6cb3 51bd
000001f0: 54d9 5ebe 264d 433e 11d2 433e bf64 d03d
00000200: c93a d9be b212 e13d f4a5 303e 4bc1 99bb
00000210: 2e41 abbe 7ae4 103d bd97 8dbc afc7 96be
00000220: 9b2d a2be 34cd e13d b433 d8be bc5a 793e
00000230: d45a c6ba 5765 3abe a783 3f3e 76a8 4cbd
00000240: 9614 2abe 9097 3bbe fd42 f1bc 9989 acbd
00000250: 47de 613d 377d 2cbd c889 0e3e eb31 43bc
00000260: 1755 8ebe 15e9 25be ee01 0dbf 3b3e d6bd
00000270: 423e 9fbd 4f25 8c39 6809 9bbd 9c9c a3be
00000280: 5758 6c3d 4364 e9bd 1102 2cbe d410 68be
00000290: f712 60bd 503c 863d 84ef 3e3e 44b3 c4bd
000002a0: ef4a 35be d063 09bd 962a 34be 5152 47bd
000002b0: 68db d4bd 2688 cf3d 201e cc3c 8dbf 5a3e
000002c0: 23b7 833e bd13 c1bd abb4 0fbe 51d6 76be
000002d0: 5ea0 843e c291 74bd 0cb7 c0be 0d36 8abe
000002e0: b774 fc3d 2e01 293d addd c0bd a342 a03c
000002f0: f279 af3e 32df c8bd 08ba 8bbd a1f3 0abc
00000300: c8e0 bcbe d8cd 9b3e 3041 793e a7de df3d
00000310: b8e8 0a3e b78b 283e d68d f63d c672 41be
00000320: 13c5 44bd 8f7e 4dbe b326 00be 3e86 1fbd
00000330: cd98 0eb9 922a 22be 60b8 ac3d 571e 8abe
00000340: 6de1 30be 3663 b83d d4bf 05bd 6bfc d8bd
00000350: 8a04 733e ab2d 763d 1321 b83d 38e7 143d
00000360: dfd7 6c3e 2766 02be 4c34 b3bc 4eb1 0b3e
00000370: 5486 19be 0a5e 58be 748b f83d 38aa 8abe
00000380: ec96 6bbd 1f2d 75be 9158 553d beaa ff3b
00000390: aa24 a4bc 4af9 82bc 9d67 5abd 1732 cebd
000003a0: 86d2 ebbc a445 a9be c500 6dbe 720d 313e
000003b0: bae8 b23d 6ceb 933e 60c9 0fbe 334b 6c3d
000003c0: e5a3 b73d 2f0c b63d b85b 0abe 8283 fd3a
000003d0: bc9b 72bd 080f f4bd 7429 48bb 8fee 0f3e
000003e0: fb05 d83d 4fa5 723c 340a 36be a4fe 11be
000003f0: 67ac c7bd 7410 013e 68e0 853e c6d7 0dbe
-0.115199186 -0.104746066 -0.20700079 -0.16930954 0.06015762 -0.38601854 0.14323512 0.063316345
-0.33915502 -0.27382433 -0.2236489 0.024261447 0.303808 0.17981508 0.27353027 -0.07212356
-0.376302 0.23437908 0.15795061 -0.10908183 0.1764984 0.10807377 -0.12567048 -0.092191346
0.1831046 -0.03348985 -0.49411717 -0.1479767 -0.0752077 -0.111193635 -0.04337201 0.28079093
0.049626794 -0.279968 0.024743399 -0.008876106 -0.31526566 0.15237254 -0.013128796 -0.08143652
0.054675587 -0.33325052 0.15608475 -0.025939096 0.063669115 -0.119365714 0.1630017 0.07983274
0.17341438 0.13877565 -0.10668106 -0.5594547 -0.20354038 -0.056563906 -0.037170354 -0.33166376
-0.0891228 -0.05281235 -0.30519712 0.078197055 0.016415607 0.3933501 -0.04158217 -0.12545718
-0.15372895 0.10722718 0.05064361 -0.1256565 -0.0066552646 -0.2352157 0.2639872 0.12752493
0.0045615314 -0.15841872 0.20487072 0.09236841 0.022302652 -0.30546767 0.018204717 -0.061662227
-0.0010398605 0.044219326 0.09659941 -0.36324537 -0.050546717 -0.3131833 0.024453463 0.17409389
0.029273812 -0.21357597 -0.26153988 0.13935868 -0.27011144 -0.42358553 0.26262286 0.21416017
-0.29661313 0.09135187 0.10144898 -0.14884336 -0.20675273 -0.3980857 0.07056129 -0.07505374
-0.0015509392 -0.32250437 0.014005148 -0.08418735 0.08063439 -0.0845329 -0.15228222 0.29713237
0.2027706 0.057665408 0.22173339 -0.14839454 -0.086738214 -0.25848037 0.089109324 0.07281085
-0.06325873 0.10041233 -0.5609269 -0.0511965 -0.21762592 0.19072399 0.19123103 0.10175466
-0.42427662 0.10989894 0.17250806 -0.004692232 -0.33448166 0.035374142 -0.017284269 -0.29449221
-0.3167542 0.110254675 -0.42226946 0.24351019 -0.001513327 -0.1820272 0.18702565 -0.049965344
-0.16609415 -0.18319535 -0.029450888 -0.08424682 0.05514362 -0.0421116 0.13919747 -0.011913757
-0.27799293 -0.16202195 -0.5508107 -0.10461088 -0.077755466 0.00026730678 -0.075701535 -0.3195542
0.057701435 -0.113960765 -0.16797663 -0.2266267 -0.054705586 0.065544724 0.18646055 -0.09604505
-0.17704366 -0.033542454 -0.1759437 -0.048662487 -0.10393411 0.1013339 0.024916708 0.21362133
0.2572566 -0.09427593 -0.14033763 -0.24105193 0.259036 -0.059709318 -0.37639654 -0.26994362
0.12326949 0.04126089 -0.09417281 0.019563025 0.34272724 -0.09808196 -0.06822592 -0.008480937
-0.36890244 0.30430484 0.24341273 0.109311394 0.13565338 0.16459547 0.12038772 -0.18891439
-0.048039507 -0.2006781 -0.12514763 -0.038946383 -0.00013599098 -0.15836552 0.08433604 -0.26976272
-0.17273493 0.09003298 -0.032653645 -0.1059502 0.237322 0.060102146 0.089906834 0.03635332
0.23129223 -0.1273428 -0.021875523 0.13641855 -0.14992648 -0.21129623 0.121359736 -0.27082992
-0.057516977 -0.23942994 0.052086417 0.0078023365 -0.020037014 -0.01598801 -0.05332147 -0.10068148
-0.028786909 -0.33060944 -0.23144825 0.17290285 0.08735795 0.2889055 -0.14041662 0.057688903
0.08966807 0.088890426 -0.1351155 0.001934156 -0.05923055 -0.119169295 -0.0030542286 0.14055847
0.10548016 0.01480992 -0.1777733 -0.14257294 -0.0974968 0.12603933 0.2614777 -0.13851842

fc3.bias f4 [10]
00000000: b635 3dbb 6c26 97bd a665 5cbc 60ba 673e
00000010: 31f2 693e a28c cb3b 1f1d 223e d28a 54bc
00000020: a6d6 643c b4d9 4c39
-0.0028871126 -0.07380375 -0.013451969 0.2262969 0.22846295 0.006211833 0.15831421 -0.0129725505
0.013967192 0.00019536057
